tests/data/embedding/5_3_1_256_layer_weight.npy (npy, 3200 bytes, 1 tensors)

array f4 [3, 256]
00000000: cd3c 51bf bd39 0ebf eda1 53bf 9a02 a6bf
00000010: aa1d 4abe 90de 76bf 8f67 03bf a02d 2840
00000020: 591a 3fbf eaa6 803f 6e80 83be dff6 f33e
00000030: 364b 2abf 4daf b9be 1ba5 b9bf b393 7fbe
00000040: 046c 543f 337b 8f3f 51fa 7f3f d8ef 8e3f
00000050: aac3 893f daa2 87bd 01af 063e ad20 2c3e
00000060: c80d 663d 7678 7b3e 7718 743f 19ef b53e
00000070: 0e2f 593e 48f0 acbe 510c b5be 92ba 8bbe
00000080: a11d aa3f a343 993f addb a1bf be6e debe
00000090: ef8e 0bc0 ffff 8dbf 5ea0 02c0 faa9 083d
000000a0: c44d 8abf 971c 62bf eb5e 793f af2b 103f
000000b0: 22bc 8ebf 7495 183e 82d0 8bbf a541 babf
000000c0: 3952 f6be c888 8abf 02aa a23e edce 2f40
000000d0: 24f0 bc3e ad2d ab3f 8200 6bbf b625 76bf
000000e0: 7c5e a6bb 3528 b53e 6e40 b6be 143d 44bf
000000f0: ef34 dc3e a23e 193e 59e7 7bbe d858 bbbf
00000100: 3b6d 163f 3e83 94bf 1794 803f 5c2d 13bf
00000110: 93d6 153f 24d3 aebf 20ac aabf fb84 143e
00000120: 13d4 9f3f 4dc1 11c0 f252 a03f a5f2 0b3f
00000130: 337d a43c 39d9 cabf 085d 1c40 4766 443f
00000140: ff97 203f 259e 94be 0198 1a3f e8ce 9b3f
00000150: 5e45 703e 6a43 dfbe 0eba 60be 183b dcbf
00000160: df96 bb3d 600a 563f 5f8c c23f e0fb 14be
00000170: ed0e 13c0 78cc 433f e37c 683f 0f74 1ec0
00000180: 9a78 853e 6fc0 d53d 23ee 81be fc38 18be
00000190: dff0 13bf 1843 cfbf 14fb 8cbe f696 bdbe
000001a0: b49c 5b3f c452 babf 9126 34bf 3212 22bf
000001b0: 772f 803f 150b 3b3f 9fec 10c0 0f44 a9bf
000001c0: 17eb d83f 4102 9dbe f011 a63f d625 afbe
000001d0: d72c 293f aad9 04bf 5603 483f 6fc1 b5bf
000001e0: 4ebe 55bf 92fb 17bf 49ec a53f 634b 483f
000001f0: d4dc 72bf 1c7c 163f b0ae 013f c68c a2bf
00000200: 00ca 32be 6e01 8f3f f0f4 5d3f 1168 953f
00000210: 8174 003e f0fe 853f 169e 213f 7ca8 1b3f
00000220: 8651 95be 02cb b5be 0673 223f 029e 543e
00000230: 83a6 783f 84df 07be 5e0f 52be 8745 533d
00000240: ae7b 94bd 4582 a2bf a6a9 eabf 0c12 443f
00000250: 75e0 c83e 031c dc3e 4acc 433e 54c3 95bf
00000260: 3c21 b23f 74b3 813e 9126 c33f e24e 063f
00000270: 757c b6bf 0e46 21bf 0c85 32be 8b60 01bf
00000280: a9db 703e a47a 95be 6d68 8bbf ed27 1e3f
00000290: d903 88be 1dad b73f 4d65 033f 6ab4 853f
000002a0: 4e8c 0c3d f49f b5be f370 83bc 8700 66bf
000002b0: e69d 1ebe 06c0 8f3f b0c9 bebd 36b6 fa3e
000002c0: 4d1a c7bf 8473 9ebe 2ac1 c1bf eb67 1c3f
000002d0: d820 b13f 2b88 703f 97fa 8cbe 9cf9 30c0
000002e0: 482e 063f d068 f73e 25cd 4dbf c944 a1bf
000002f0: 6c66 9dbe dc8f 8dbe e027 1fc0 4e5a 86bf
00000300: 1c90 083f 2f97 883d d711 bfbf 7261 d03d
00000310: 0d24 85bf 2b5d 92bf 965a a83e a657 883e
00000320: 88c5 203c 214d ffbe 352b 98bf d7af 9abe
00000330: 32d8 ee3e 20da ec3f 826b 39be 37de 023f
00000340: c674 913d c026 e7bf 2576 913f b1d8 3abf
00000350: f1a5 cdbc 90cd 87bf 5b80 243f 2ade b5bf
00000360: abbd 1fbf 150b 28bf b8dc 1240 c053 243e
00000370: 3294 54be afc9 19bf f894 7a3f 0bee 8a3e
00000380: d049 06bf b741 673d d526 023f 2c59 013f
00000390: b093 9d3e 0e21 dfbf f158 8fbf f70a 51bb
000003a0: f8e4 60bf c2ee 50bf 4e1f ccbf e0c4 babf
000003b0: 7c51 0fc0 9edd b2bf 0880 74be c74e e6be
000003c0: c406 1abc b023 abbb 8c58 503f d44e 1fbf
000003d0: 949c 753e 88fe 763d 35cf 863f 7fa5 e8bc
000003e0: f435 cb3d 2311 d4bf fb1e 963f 4ed8 a23f
000003f0: 9972 6abf 35b5 b7bf 067e 673f 8038 24be
-0.817334 -0.5555685 -0.82668954 -1.2969544 -0.19737878 -0.96433353 -0.5132989 2.6277847
-0.7464958 1.0050938 -0.25683922 0.47649285 -0.6652101 -0.36266556 -1.4503511 -0.24958687
0.8297732 1.1209472 0.9999133 1.1166945 1.0762837 -0.06622858 0.13152696 0.1680934
0.056165487 0.24557671 0.9534983 0.3553398 0.21209356 -0.3377707 -0.3536096 -0.2729078
1.3290292 1.1973766 -1.2645165 -0.43443865 -2.180599 -1.1093749 -2.041038 0.033365227
-1.0804982 -0.88324875 0.9741046 0.56316656 -1.1151164 0.14900762 -1.0923007 -1.4551283
-0.48109606 -1.0822992 0.3177033 2.7470047 0.36901963 1.3373314 -0.9179765 -0.9615129
-0.0050771814 0.35382238 -0.3559603 -0.766557 0.43009135 0.14965299 -0.24599971 -1.4636488
0.5876042 -1.1602552 1.0045193 -0.5749109 0.5853054 -1.3658185 -1.3333778 0.14503853
1.2486595 -2.2774231 1.2525313 0.5466712 0.02007923 -1.5847541 2.4431782 0.7671856
0.6273193 -0.29026905 0.6038819 1.2172518 0.23463961 -0.4360612 -0.21945974 -1.7205534
0.09159636 0.8360958 1.5199088 -0.14549208 -2.297786 0.7648387 0.9081556 -2.4758337
0.26068574 0.104370944 -0.25376996 -0.14865488 -0.57789415 -1.619235 -0.27535307 -0.37029237
0.85785985 -1.4556508 -0.7037135 -0.63309014 1.0014485 0.73063785 -2.2644422 -1.3223895
1.6946744 -0.30665782 1.2974224 -0.34208554 0.66084045 -0.5189463 0.7813009 -1.4199656
-0.83493507 -0.5936824 1.2962734 0.7824003 -0.94868207 0.58783126 0.50657177 -1.2699211
-0.1745987 1.1172311 0.8670187 1.1672384 0.12544443 1.0468426 0.63131845 0.6080396
-0.2916376 -0.35506445 0.6345676 0.207634 0.97129077 -0.13268858 -0.20513675 0.05157998
-0.072501525 -1.2696005 -1.8333023 0.7659004 0.39233747 0.4299012 0.19120899 -1.1700234
1.3916392 0.25332224 1.5246145 0.52464116 -1.4256731 -0.6299752 -0.17433566 -0.5053794
0.23521294 -0.2919513 -1.0891243 0.6177967 -0.26565436 1.4349705 0.5132645 1.0445683
0.034313492 -0.35473597 -0.01604507 -0.89844555 -0.15489921 1.1230476 -0.093158126 0.4896714
-1.5554901 -0.30947506 -1.5137074 0.61096066 1.3838148 0.93957776 -0.27534935 -2.765235
0.5241437 0.48322153 -0.8039115 -1.2599117 -0.30742204 -0.27648818 -2.4868088 -1.0496309
0.53344893 0.06669461 -1.4927319 0.10174836 -1.0401627 -1.1434683 0.32881612 0.2662937
0.00981272 -0.49863532 -1.1888186 -0.3021228 0.4664932 1.8504066 -0.18107417 0.5112032
0.07102351 -1.80587 1.136418 -0.72986895 -0.025103541 -1.0609608 0.64258355 -1.4208424
-0.62398785 -0.6564191 2.2947216 0.16047573 -0.20759657 -0.6007337 0.9788356 0.27134737
-0.5245638 0.056459155 0.508405 0.5052669 0.3077674 -1.7431962 -1.1199018 -0.0031897405
-0.8784938 -0.81614316 -1.5947053 -1.4591331 -2.2393484 -1.3973882 -0.23876965 -0.44981977
-0.009401027 -0.00522276 0.8138511 -0.6222966 0.23985511 0.060301334 1.0531985 -0.028399227
0.099224 -1.656773 1.1728204 1.2722261 -0.9158111 -1.4352175 0.9042667 -0.16037178
