tests/data/linear/128_256_512_True_layer_bias.npy (npy, 2176 bytes, 1 tensors)

array f4 [512]
00000000: 1a10 483d c033 89bc faec 4b3d e633 50bd
00000010: b499 19bd 8ca8 b53c 4410 0cbd d893 643d
00000020: 8c4c 3bbd 88bc 4b3c 20f5 533b beed 59bd
00000030: 1024 46bc 7492 d73c 70a3 afbc 0683 6bbd
00000040: f081 783c 9036 1b3d 6616 523d 6cbc 69bd
00000050: 440e 723d 18ea 5c3d d0ee d6bc 9434 313d
00000060: 4016 f2bc d434 4fbd 80d5 973c 44eb aebc
00000070: d05a 21bd c4b6 7fbd 02b7 16bd cc48 f63c
00000080: fe6b 0d3d d85c 4d3c b0e0 a1bb d8de b4bc
00000090: 28b9 5dbd 280b 413d be8c 4cbd 1c1e 7bbd
000000a0: 344a fc3c 288f 4bbc a0a4 7b3d 8a35 633d
000000b0: c006 06bd 74d4 2d3d 8477 50bd 74ee d1bc
000000c0: 1055 873b 5606 613d e8aa 62bd 7402 f43c
000000d0: 384e db3c ea9f 2bbd 7462 04bd 92fe 1cbd
000000e0: 60d8 f7bb 7ab1 0ebd b099 7ebc 5ac5 2bbd
000000f0: f239 39bd c469 ce3c 4019 653c 6ca3 413d
00000100: d839 a53c 78ce b23c a4ef 7fbd 20e6 fb3c
00000110: 3081 433d 60ed 6d3c 5efc 07bd 1483 cfbc
00000120: 981c b23c f09d 0e3d 9642 753d 1467 8bbc
00000130: fc6b 7fbd 0a1b 593d 8282 143d 9c6b d0bc
00000140: e02f a63c 6475 61bd b8f5 41bd 808e f5ba
00000150: fc82 223d 6812 ce3c 8e20 00bd 5204 2fbd
00000160: bca6 75bd d4f9 cebc 6e41 743d bcad edbc
00000170: 8e31 1abd 407a 003c 06fa 2bbd 660a 123d
00000180: 6437 4dbd 62fc 683d 48e1 793d e063 593b
00000190: b0e8 923c 06b4 36bd c090 d73c 689b 6abd
000001a0: 2083 0fbd 1c44 fcbc 84de d73c 7a6a 33bd
000001b0: bcff 8b3c d420 3ebd b650 233d 8604 0d3d
000001c0: b650 37bd b8c4 523c 983e ce3c 24e0 d2bc
000001d0: 649f 93bc 7015 7cbd 86af 52bd 4e75 1cbd
000001e0: 52fc 7b3d 2027 ae3c 36cb 3b3d 9c53 57bd
000001f0: 4e15 28bd c6c0 043d 0efa 383d 58d9 bd3c
00000200: 8215 49bd eee8 59bd e0e5 923b 0cf6 eb3c
00000210: 80a1 acbc 5053 6c3d 6e49 163d bac2 36bd
00000220: 40e7 51bb e8b5 4d3c c4ac 2bbd 7ef3 753d
00000230: f8c4 f83c 5a8d 01bd ac98 603d fa0a 57bd
00000240: 2804 f1bc 4845 dbbc d809 133c 8cad cc3c
00000250: 86a8 3bbd 4ea0 65bd 60c8 8bbc ec30 493d
00000260: 04c5 113d 4095 623b 9066 22bd 14b7 a6bc
00000270: f884 eebc a037 f13b acf3 8d3c a8fb b1bc
00000280: 56f5 14bd 8448 42bd 7088 0ebc 9c10 3abd
00000290: 8c53 9abc f6d8 79bd 400d 443d 84d2 03bd
000002a0: 00ca 8abb 4c85 d2bc 0adc 52bd 2013 0dbc
000002b0: 8430 9a3c a077 8dbb c656 1cbd 701f 853c
000002c0: a8d0 04bc d06a 2d3d 2015 cfbc e445 d6bc
000002d0: cce9 30bd f8a4 533c 0025 a03c 4c48 d7bc
000002e0: b89a 2fbc e4d8 673d 7e24 4bbd 1444 a43c
000002f0: f6b3 1e3d ec4d d83c 6c7c 1d3d 40c7 6e3d
00000300: e0aa 1d3c 6040 56bd a47d 29bd 1098 973c
00000310: c202 4d3d 5a37 2b3d 06e9 3fbd 5427 ee3c
00000320: 802f c13c e0ca f7bb 0244 70bd f0ea 99bb
00000330: 00ce 17bc 4ea3 043d 90ee b03b 600e 693d
00000340: 6a42 76bd 8822 2ebc 20f3 70bd 6827 a73c
00000350: 7e38 35bd 38e5 a83c 7e2c 52bd b663 473d
00000360: 203d a23c 4ab6 26bd 1a96 67bd 0031 c4bb
00000370: c495 ac3c c897 91bc 9449 103d 44d3 f5bc
00000380: 5217 6a3d 9ee5 6bbd 00a9 de39 a28f 32bd
00000390: 585b e7bc 4082 3fbd 10eb 33bd 3895 d83c
000003a0: 5cf9 a93c 08bf 2dbd de3a 74bd 38b8 ff3c
000003b0: 2e5c 4e3d 329c 123d 446d 293d 9870 2ebd
000003c0: 5a5b 73bd c0f0 63bb f225 1bbd 8c26 1f3d
000003d0: d084 513c 62eb 013d f84f 13bc 20b5 fabb
000003e0: 6aed 52bd a84d 0e3c 88e1 063d 2e5c 65bd
000003f0: 9a50 413d 5ee4 4c3d d813 a43c 0658 353d
0.04884348 -0.01674831 0.049786545 -0.050830744 -0.0375001 0.022175096 -0.0341952 0.055805057
-0.045727298 0.012435086 0.003234215 -0.053205244 -0.012093559 0.026314951 -0.021440238 -0.057498
0.015167698 0.03789383 0.051290892 -0.05706446 0.059095636 0.053934187 -0.026236922 0.043263033
-0.029551625 -0.05058749 0.018534422 -0.021352418 -0.039393246 -0.06243016 -0.036795624 0.03006401
0.034526818 0.012534343 -0.004940115 -0.022078916 -0.054131657 0.04712978 -0.04993891 -0.06130801
0.030797102 -0.012424268 0.061436296 0.05547098 -0.03272128 0.04243894 -0.05089523 -0.025626399
0.0041300133 0.054937683 -0.05533877 0.029786326 0.026770696 -0.041900553 -0.032320455 -0.038328715
-0.0075636357 -0.034837224 -0.015539572 -0.041936256 -0.045221277 0.025196917 0.013983071 0.047274992
0.020169184 0.021826968 -0.0624844 0.03074938 0.047730625 0.014521927 -0.03319966 -0.025331058
0.02174215 0.03481859 0.059877954 -0.017016925 -0.06235884 0.053004302 0.036257274 -0.025441937
0.0202865 -0.055043593 -0.047353476 -0.0018734485 0.039675698 0.025155261 -0.031281047 -0.04272873
-0.059973463 -0.025265612 0.05963271 -0.029013507 -0.037644915 0.007841647 -0.041986488 0.035654448
-0.050101653 0.056881316 0.06100586 0.0033171102 0.01793322 -0.044605277 0.02631414 -0.057277113
-0.03503716 -0.030794196 0.02635122 -0.043802716 0.017089717 -0.046418026 0.039871894 0.034428142
-0.044754706 0.012864284 0.025176331 -0.025741644 -0.01802034 -0.061543882 -0.051436923 -0.038197808
0.06151993 0.02125889 0.045848094 -0.05256997 -0.041035943 0.032410406 0.045160346 0.023174927
-0.049092777 -0.053200655 0.0044829696 0.028803848 -0.021073103 0.05769664 0.03669112 -0.0446193
-0.0032028705 0.012555577 -0.04191281 0.060046665 0.03036736 -0.031628944 0.0548331 -0.052500702
-0.029420927 -0.026766434 0.008974515 0.024985097 -0.045815013 -0.05606108 -0.01706332 0.04911892
0.03558828 0.0034573823 -0.039648592 -0.02035097 -0.029116139 0.0073613673 0.017328106 -0.021726444
-0.036366783 -0.047432438 -0.008699521 -0.045425996 -0.018838666 -0.060997926 0.0478642 -0.032183185
-0.004235506 -0.025698327 -0.051479377 -0.008610517 0.018821962 -0.004317239 -0.03816869 0.016250342
-0.008106388 0.042338192 -0.025278628 -0.026156373 -0.043191716 0.01291775 0.019548893 -0.026279591
-0.01071804 0.056603327 -0.04959535 0.020051993 0.038745843 0.026404344 0.038448736 0.05829549
0.009623259 -0.052307487 -0.041379586 0.018505126 0.05005146 0.041800834 -0.046853088 0.029071487
0.02358222 -0.0075620264 -0.058658607 -0.004697196 -0.009265423 0.032382302 0.0053995326 0.056898475
-0.06012193 -0.01062835 -0.058825612 0.020404533 -0.04424333 0.020617113 -0.051311962 0.048679076
0.019804537 -0.04070119 -0.056539632 -0.0059872866 0.021067508 -0.01777257 0.03522642 -0.030007966
0.057151146 -0.057592027 0.00042469054 -0.04359401 -0.028241798 -0.046755075 -0.043925345 0.02643834
0.020748787 -0.04241851 -0.059626453 0.031215772 0.05038088 0.03579349 0.04136397 -0.042587847
-0.05941329 -0.003478095 -0.037877984 0.03885512 0.012788013 0.03171862 -0.008991234 -0.0076509863
-0.051495947 0.008685507 0.032929927 -0.055996113 0.04719601 0.050022475 0.020028993 0.0442734
