tests/data/linear/64_256_128_True_layer_bias.npy (npy, 640 bytes, 1 tensors)

array f4 [128]
000000 50 c0 99 bb a0 f7 a4 bc a6 13 1e bd 10 6a 4e bd
       -0.004692115 -0.020137608 -0.038592957 -0.050394118
000010 f8 a3 ac bc 50 b8 9b 3b f0 61 c7 bb f0 dc 6d bd
       -0.02107428 0.0047521964 -0.006084673 -0.05807203
000020 78 28 d7 bc b8 e8 76 bc 00 b1 d3 bb bc 00 f6 bc
       -0.026264414 -0.015070133 -0.006460309 -0.030029647
000030 38 e1 08 bc 4c c6 13 3d 6e fb 7b 3d 60 ac 86 3c
       -0.008354478 0.036077783 0.06151908 0.016439617
000040 84 81 6f 3d a2 c4 4c 3d d4 d5 db 3c 00 1b 10 3c
       0.058473125 0.04999221 0.02683536 0.0087955
000050 10 ee 79 3d 00 64 65 bc 40 04 e7 3a f6 3d 1e bd
       0.06101805 -0.014000893 0.0017625168 -0.03863331
000060 2a d2 4b 3d d4 72 45 bd f0 a9 c8 3b 78 40 c0 bc
       0.049760975 -0.04820521 0.0061237738 -0.023468241
000070 98 b2 95 bc 7c 88 fb 3c 40 b0 32 bd 14 78 07 3d
       -0.018273637 0.03070473 -0.043625116 0.0330735
000080 f0 e6 4f 3c e8 0f 1a bc e0 17 7a 3d 04 5a 36 bd
       0.012689337 -0.009403206 0.061057925 -0.04451944
000090 00 37 c2 39 bc ca c8 3c 8c 70 62 bd 9a ab 49 bd
       0.00037043542 0.024510734 -0.055283114 -0.049235918
0000a0 24 7a 9c 3c 00 3c 8d 3b 80 52 b9 bc b0 03 f7 3b
       0.01910121 0.004310131 -0.022622347 0.0075382814
0000b0 ac ee ae bc 1e 7f 4f 3d 90 73 d4 3c 00 e1 22 3d
       -0.021354042 0.050658338 0.02593401 0.039765358
0000c0 e0 ef 9f bc e0 aa db 3b 6a a0 5b 3d f8 07 ac bc
       -0.019523561 0.0067037195 0.05361978 -0.020999894
0000d0 e4 8d 65 3d b0 e8 aa 3b f0 70 39 3c b4 3d 84 3c
       0.05604352 0.005215727 0.01131843 0.016142704
0000e0 32 06 20 3d a0 80 68 bd 7c 17 35 bd ac 00 52 bd
       0.03906841 -0.05676329 -0.04421185 -0.051270172
0000f0 94 94 4f bd 18 02 0b 3d 3a 3e 0d 3d 08 68 72 3d
       -0.050678805 0.033937544 0.034483172 0.059181243
000100 88 58 79 bd 62 57 36 3d ce 59 34 3d 22 e4 25 bd
       -0.060875446 0.04451693 0.044030957 -0.040500768
000110 50 a6 c2 3b f0 40 4e 3d 94 ea d2 bc 60 1d e4 3c
       0.005940236 0.050354898 -0.025746621 0.027846038
000120 a6 31 7f bd d0 28 8f bb 5a df 07 3d 84 c2 f6 bc
       -0.062303208 -0.004368879 0.03317199 -0.03012205
000130 f0 ed 32 bc d4 df 71 bd 5c 9e eb 3c 44 83 f0 bc
       -0.0109209865 -0.05905135 0.028762035 -0.029359467
000140 a0 0d a3 3b 1e 3d 65 bd 00 21 95 b9 10 ae 33 bd
       0.0049759895 -0.05596649 -0.00028444082 -0.04386717
000150 f0 45 77 bd 44 ed 62 bd 44 50 3a 3d e4 e2 65 bd
       -0.060369432 -0.055402055 0.045486704 -0.056124583
000160 c0 ed 62 bb 14 bc 16 3d 78 4c 34 3c 0c 89 97 bc
       -0.0034626573 0.03680046 0.01100456 -0.018497966
000170 18 6a 52 3c 9c 02 3f bd b4 85 d9 3c f6 15 7b bd
       0.0128426775 -0.046633348 0.026553012 -0.06130024
000180 06 d9 78 bd fc c4 e3 3c d6 ff 5e 3d 04 e6 54 3d
       -0.060753845 0.02780389 0.054443203 0.051977172
000190 9c af 0d bd 24 4a 19 bd 22 d1 4d bd 74 b0 2b 3d
       -0.034591302 -0.03742422 -0.050248273 0.041916326
0001a0 30 3b f1 3c 40 f8 ed ba d8 a6 36 3d a8 fd 32 bd
       0.029447168 -0.0018155649 0.04459271 -0.043698937
0001b0 82 6e 15 3d c0 7d f9 ba 18 99 64 3d 40 ae 5b bc
       0.03648234 -0.0019034669 0.055810064 -0.013408244
0001c0 d0 0b 0c 3c d0 39 cd 3b 5e 24 0a bd 68 45 45 3d
       0.008547738 0.0062629953 -0.03372609 0.048161894
0001d0 18 f3 25 bd e4 b6 6e bd 44 f1 3f 3d 34 93 f8 3c
       -0.040515035 -0.058279887 0.04686095 0.03034363
0001e0 80 02 4e 3d 98 0e c4 bc 0e aa 2b bd 68 d7 67 3c
       0.050295353 -0.02393274 -0.041910224 0.014150478
0001f0 dc af f1 bc 66 9d 19 3d c0 ee bf 3b 60 a1 44 bb
       -0.029502802 0.037503622 0.0058573186 -0.0030003414
