tests/data/linear/8_256_8_True_layer_weight.npy (npy, 8320 bytes, 1 tensors)

array (column-major) f4 [256, 8]
000000 70 af ab bb 60 70 0c bb 70 00 c0 bc 78 90 6b 3c
       -0.0052394196 -0.0021429285 -0.023437709 0.014377706
000010 80 75 12 bd 78 94 34 bc ec 71 c6 3c 38 49 70 3d
       -0.035756588 -0.011021726 0.024224244 0.058663577
000020 c8 3e 71 3c 8c b4 ad bc 00 5f c4 3b 30 86 e5 bb
       0.014724441 -0.021204256 0.00599277 -0.007004522
000030 c4 fd d0 3c a0 7f ea 3b 20 90 c8 3c 92 48 78 3d
       0.02551163 0.0071563274 0.024482787 0.060616083
000040 00 9c d4 bc c0 c2 10 bb 40 81 6b 3c 00 0a d6 b9
       -0.025953293 -0.0022088736 0.014374077 -0.0004082471
000050 c0 25 c4 bb 1a 8d 62 bd e0 d3 5c bd 38 5d 66 bd
       -0.0059859455 -0.055310346 -0.053912997 -0.056241244
000060 22 7e 7a bd ea 6c 6e bd 94 ef 41 bd 50 e5 66 bd
       -0.061155446 -0.058209337 -0.04734762 -0.056371033
000070 2a 25 70 bd e8 71 e0 3c 7c 04 1d 3d 42 fc 2c 3d
       -0.058629192 0.027398065 0.038334355 0.04223276
000080 90 e9 09 3d 90 7d ad 3c 38 8f e1 3c 9e 92 0d bd
       0.03367001 0.021178037 0.027534112 -0.034563653
000090 66 7d 66 3d a0 3c 8d bb 9a e0 5c 3d 14 f7 9c 3c
       0.056271933 -0.0043102056 0.053925134 0.019160785
0000a0 1a 60 48 3d e6 35 4c 3d 38 f3 55 bc 08 ea 94 bc
       0.048919775 0.04985609 -0.013058476 -0.018178001
0000b0 68 14 1a 3c 80 14 2e bb b0 2a 20 3c 3c de 01 3d
       0.009404279 -0.0026562512 0.0097758025 0.03170608
0000c0 c4 0a 48 bd e0 f4 3b bb e8 ea 48 bd 82 3a 77 3d
       -0.048838392 -0.0028679892 -0.04905215 0.06035853
0000d0 c2 0b 34 bd c8 d9 43 3c 70 e3 8b bc 36 82 11 3d
       -0.043956526 0.011953779 -0.017076224 0.03552457
0000e0 00 24 5c 39 30 fa cd bb 9a 60 3b 3d 2c d3 69 3d
       0.00020994246 -0.006285928 0.045746423 0.057086155
0000f0 d2 c8 39 bd 44 eb 76 bd 80 af aa 3b 2c 46 a1 3c
       -0.045357533 -0.06028296 0.0052089095 0.01968678
000100 e0 b4 69 3c 94 78 6c 3d 60 d3 e5 3c dc 89 eb bc
       0.014264315 0.05773218 0.028054893 -0.02875226
000110 e2 4f 2f bd 24 9c 46 3d a0 5b 75 3d 28 f6 f2 bc
       -0.04280079 0.04848875 0.059901834 -0.029658392
000120 72 d7 23 bd 60 35 b3 3c ea 14 37 bd 78 cb 77 bc
       -0.040000387 0.021876037 -0.04469768 -0.015124194
000130 a4 34 7d bd 1c 12 8c 3c d4 94 ae bc c8 39 0f bd
       -0.06181778 0.017098479 -0.021311201 -0.034967214
000140 be c9 22 bd b0 28 b4 bc e8 2b f3 3c 00 ec 67 3b
       -0.039743178 -0.021992058 0.029684022 0.003538847
000150 b0 73 5c 3d 50 ff b6 bc ec d5 95 bc 08 90 7a 3d
       0.053821266 -0.02233854 -0.018290482 0.061172515
000160 72 2f 74 bd a0 8a c9 bc 50 d1 1e bd 64 4e 76 3d
       -0.05961556 -0.024602234 -0.038773835 0.060133353
000170 d8 4a 08 3d 28 8d ab bc 78 5b d9 bc a0 05 9d 3c
       0.0332745 -0.020941332 -0.026532874 0.019167721
000180 c4 13 ad bc 34 f7 9e 3c 50 09 03 bd e2 6a 1e bd
       -0.021127589 0.019404985 -0.031991303 -0.03867615
000190 c0 00 cd ba 0c 51 16 3d ec 09 5a 3d a8 52 62 3c
       -0.0015640482 0.036698386 0.05323212 0.013813652
0001a0 2c 0a 18 bd 2c d5 05 3d 2c 98 c7 3c c0 69 da 3c
       -0.037119076 0.032674 0.024364553 0.026661754
0001b0 d0 b3 aa bc 20 29 0a bc 80 47 ec 3c f8 80 d3 3c
       -0.020837694 -0.0084326565 0.028842688 0.025818333
0001c0 ec 0b 2a 3d 8e 8e 19 bd e2 bf 20 3d c4 26 c7 bc
       0.041515276 -0.037489466 0.039245494 -0.024310477
0001d0 00 a5 cd ba 60 fc f0 bc 58 c7 97 bc da 95 2c 3d
       -0.0015689433 -0.029417217 -0.018527672 0.042135097
0001e0 72 b2 5a 3d ac 4b b2 3c 3e 09 40 bd 38 d3 bc bc
       0.053392835 0.021764599 -0.046883814 -0.023049936
0001f0 5a 94 31 3d 60 21 8a bc 4e 20 51 bd 48 d6 6d 3c
       0.04335437 -0.016861618 -0.0510562 0.014516421
000200 b6 42 63 bd 00 80 c5 b9 e0 c6 fb bb 80 0b 1d 3a
       -0.055483542 -0.00037670135 -0.00768362 0.00059907883
000210 e8 cf 73 bc 18 a7 15 bc e0 c1 1a bd 58 05 29 bd
       -0.014881112 -0.009134077 -0.03778255 -0.04126486
000220 48 15 a8 3c e0 ec 66 3d e4 83 4c bd 9a a7 71 bd
       0.02051796 0.056378245 -0.04993047 -0.058997728
000230 62 77 0a bd e6 b9 75 3d 22 66 66 3d 9c 1a 79 bd
       -0.03380526 0.05999174 0.056249745 -0.060816392
000240 a8 61 78 3c c8 1c 0a 3c dc 2a 62 3d 40 81 99 bc
       0.015160002 0.008429714 0.055216655 -0.018738389
000250 a8 d3 a8 3c bc 93 fd bc c0 24 6f bd 10 d5 e5 3b
       0.020608738 -0.030954234 -0.058384657 0.0070139244
000260 5c 84 f7 bc 00 63 80 bb b8 1e 62 bc 4c 0f 4f bd
       -0.030214481 -0.0039180517 -0.013801269 -0.050551698
000270 18 e2 15 3d e4 cb 30 3d 3c c2 43 3d 88 e6 04 3c
       0.036592573 0.043163195 0.04779266 0.008111604
000280 de bc 71 bd 08 b8 4c bd 00 37 d7 bb 00 78 d4 bb
       -0.05901801 -0.049980193 -0.006567836 -0.0064840317
000290 c2 5a 68 bd ca aa 1e 3d 6e de 3e bd 00 10 e6 ba
       -0.05672718 0.038737096 -0.046598844 -0.0017552376
0002a0 18 32 74 bd f0 c5 8f 3c 00 a6 99 39 fc 15 31 3d
       -0.059618086 0.017550439 0.00029306114 0.043233857
0002b0 b0 10 2c 3c 40 e3 49 bd 84 5e 71 3d 7a 47 5c bd
       0.0105020255 -0.049288988 0.058928028 -0.053779103
0002c0 f8 c6 f5 3c 42 47 32 bd c6 22 0a 3d d8 9c 7f 3c
       0.030002102 -0.043524988 0.03372457 0.015601359
0002d0 48 11 89 3c 10 be 73 bc ec 9d 69 3d 9a 8c 79 3d
       0.016731873 -0.014876857 0.05703537 0.060925104
0002e0 60 e0 d3 bb 54 2a a3 bc 80 21 1f 3c ea ca 24 3d
       -0.0064659566 -0.019917645 0.009712577 0.040232576
0002f0 ba 2f 6e 3d da ad 68 3d 2c 07 ee 3c 10 7f ec 3b
       0.058150984 0.056806423 0.029056154 0.0072172955
000300 1a 13 3c bd 54 24 43 bd 4a 1b 2d 3d ea a1 66 bd
       -0.045916654 -0.047642067 0.042262353 -0.056306757
000310 60 8d 35 bb 42 ef 4f 3d 42 2b 5d bd aa a2 31 bd
       -0.0027702674 0.050765283 -0.053996332 -0.04336802
000320 50 80 7e bd c0 d5 0a 3d 28 37 5b 3c 92 78 1a 3d
       -0.062134087 0.033895254 0.0133798495 0.03771264
000330 c0 6a 09 bc 6c ca a5 bc 56 fb 56 3d 2a 22 27 bd
       -0.008387268 -0.020238124 0.052485786 -0.040804066
000340 4c 5d 24 bd 8e 2c 2f 3d 10 b5 6c 3d 56 42 03 bd
       -0.040128037 0.0427671 0.057789862 -0.032045685
000350 70 ed 74 bd 80 33 48 3b 00 01 fb b9 b4 4d 98 3c
       -0.05979675 0.0030548275 -0.00047875196 0.01859174
000360 3c 3c 09 3d b0 47 e3 3b 4e 78 25 bd 70 16 8d bb
       0.03350471 0.006936036 -0.040397935 -0.0043056533
000370 38 63 ec 3c 88 ee 27 3c 56 56 2f bd 40 08 76 bb
       0.028855905 0.010249741 -0.042806946 -0.0037541538
000380 98 5f 3d bc 5c c5 dc bc 42 d7 01 3d 10 28 c9 3c
       -0.011558436 -0.026949577 0.031699426 0.024555236
000390 ae 35 58 3d bc ca 55 3d 80 bc 1c bb b2 bb 4e bd
       0.052785568 0.052195296 -0.0023916066 -0.05047197
0003a0 6c 45 a8 3c ce a0 05 3d 12 26 19 3d 0e 2a 1b 3d
       0.020540915 0.03262406 0.037389822 0.037881903
0003b0 2c 21 0b 3d 00 41 5c 3c 30 f0 88 3b 24 d8 fe 3c
       0.033967182 0.013443232 0.004179023 0.031108923
0003c0 98 76 7d bd 30 6f fc 3c 10 5b 8e 3c 78 62 88 3c
       -0.061880678 0.030814737 0.017377406 0.016648516
0003d0 e8 28 8e bc b8 0f 93 3c c0 8b 72 3c 18 41 79 bd
       -0.01735349 0.017951831 0.014803827 -0.060853094
0003e0 d8 9a f0 bc 78 7c ff 3c ee 6e 31 bd f8 db b5 bc
       -0.02937071 0.031187281 -0.04331868 -0.022199616
0003f0 82 df 14 3d f4 6b 03 3d 1e 30 46 bd 98 6f e3 3c
       0.036345966 0.032085374 -0.048385732 0.027763173
